src/rnn_model.ckpt (torch, 23655 bytes, 5 tensors)

rnn.weight_ih_l0 f4 [64, 17]
000000 60 a3 c9 3c 46 48 a7 bd a8 43 f5 bd 00 7a b1 3d
       0.024614036 -0.08168082 -0.11975795 0.08665848
000010 70 6d 97 bd b8 14 ea bc ea d2 99 3d 3c c7 1d 3d
       -0.073939204 -0.028574333 0.07510932 0.038520083
000020 42 4f f6 3d 60 55 b9 3c bc fc 54 bd b0 4c b2 bc
       0.12026836 0.022623718 -0.05199884 -0.021765083
000030 22 6d ca bd e8 e9 56 bd 00 d7 16 3d 00 fc 8d bd
       -0.09884097 -0.052469164 0.036826134 -0.06932831
000040 58 42 58 bd 56 b3 fb bd 40 be b8 3b e8 60 1b bd
       -0.052797645 -0.12290065 0.005637914 -0.037934214
000050 8a a7 ef 3d b0 0d 8e bd 80 d5 84 3b 46 35 f0 3d
       0.117018774 -0.069362044 0.0040537715 0.11728911
000060 10 2c a3 3c 3e b0 8f 3d 92 03 8c bd e8 4d fe bd
       0.019918472 0.070160374 -0.068366185 -0.12417203
000070 28 ee 82 3c a4 5c 4b bd 02 90 f2 3d e0 78 c5 bd
       0.015982702 -0.049648896 0.118438736 -0.09642196
000080 58 ed cc bc 30 d5 8c 3c d2 ba dd bd 38 c3 4d 3d
       -0.025015518 0.0171915 -0.10826649 0.050235003
000090 e0 29 30 bd 1a bd 99 3d a2 9c e1 3d 72 9a cb bd
       -0.043008685 0.075067714 0.110162035 -0.099415675
0000a0 a0 d2 fd 3b 12 aa a4 3d 40 53 13 3d f8 17 b8 3c
       0.0077460557 0.08040251 0.035968065 0.022472367
0000b0 18 9b 95 bc 84 d7 14 3d e8 6b c3 3d 60 48 ba 3d
       -0.018262431 0.036338344 0.09542066 0.09095836
0000c0 04 24 5b 3d 00 dd 70 3b e0 f8 bb 3b 2c 7b 97 3d
       0.053501144 0.003675282 0.0057364553 0.0739654
0000d0 d2 f3 d0 bd 34 05 67 bd ac 88 10 bd 88 e3 38 3d
       -0.10202755 -0.056401446 -0.03528659 0.045138866
0000e0 c8 20 1e bd 04 18 c4 3d 04 e0 a2 bd 7c 20 ca 3d
       -0.03860548 0.09574893 -0.07952884 0.09869477
0000f0 98 ed b3 3d e0 0a 3a bd 48 1e e2 bd 0c f7 c9 3d
       0.08785552 -0.045420527 -0.11040932 0.098615736
000100 e2 4a ce 3d 5c 62 3f 3d a8 5c af bd 50 2f 4e 3d
       0.100728765 0.046724662 -0.08562595 0.05033809
000110 18 12 04 3e 1e 74 15 3d 1a 1a 48 3c 99 36 85 3d
       0.12897527 0.03648769 0.012213254 0.06504554
000120 45 57 46 3d 91 b4 1f 3d ba 6b a7 bc 36 36 08 3d
       0.04842307 0.03899056 -0.02043711 0.033254825
000130 bf f0 9a bd 43 dd 68 3c a1 05 00 3e 16 c1 67 bd
       -0.0756545 0.014212909 0.12502147 -0.056580625
000140 5e 22 df bd 1f bc a9 3d 1c 02 d6 3c 25 ef cf bd
       -0.10895227 0.082878344 0.026124053 -0.10153035
000150 45 16 b7 bd 4c 9b d8 3d 00 40 9e 3c ec 74 c4 3d
       -0.089397945 0.105764955 0.019317627 0.095926136
000160 d2 39 e7 3c 57 0b 2a bd 4c 29 01 bd ca 10 18 3d
       0.028225813 -0.04151472 -0.031533524 0.037125386
000170 f8 2d 0b bd 67 a1 c7 3d 63 e5 13 3d 6e 28 9c bd
       -0.033979386 0.09747582 0.036107432 -0.07624899
000180 c7 35 01 3e 37 5a 0e 3c c1 4f ea bd e6 ba 62 bc
       0.1261817 0.008688501 -0.11440993 -0.013838505
000190 d0 d2 74 bd 5e 39 a5 bd f0 be 4a 3d b0 ab b1 3d
       -0.05977136 -0.080675825 0.0494985 0.08675325
0001a0 73 67 88 3d e5 4e cd bc 12 f4 80 3b 98 eb a8 3d
       0.066603564 -0.025062034 0.0039353454 0.08248061
0001b0 a6 a6 fd bd aa 6f dc 3d ee 9d 90 3d f6 3d 03 3e
       -0.12385301 0.10763486 0.07061373 0.12816605
0001c0 a1 9b 3a bb c8 55 b7 3d 1e b3 de 3d 32 24 82 bd
       -0.002847411 0.08951908 0.10874008 -0.0635456
0001d0 8b 49 b3 bd 76 a8 f5 3d 6f 69 09 bd aa 22 b9 bd
       -0.087542616 0.11995022 -0.033547815 -0.09039815
0001e0 e0 17 c0 3d 2a 00 99 3d a0 a5 2e 3d b0 13 ca 3d
       0.09379554 0.074707344 0.04263842 0.09867036
0001f0 5a 08 ed bd f8 8a 10 bd 30 25 5c 3c 40 16 0f bc
       -0.115738586 -0.03528878 0.013436601 -0.008733332
000200 90 74 04 3c 72 92 f8 bd 2c e3 64 3d 28 c4 3f 3d
       0.008084431 -0.12137307 0.05588071 0.04681793
000210 52 0a 9c bd 3c 5c 01 3d c4 0e d8 3d b6 e4 c8 bd
       -0.07619156 0.031582102 0.10549691 -0.09809248
000220 6e 00 9b 3d 40 28 06 3c ac d5 18 3d 62 c8 a6 3d
       0.07568441 0.008188307 0.03731315 0.08143689
000230 d4 d0 b9 bd f8 97 d0 bc b0 e3 16 3c a8 63 21 bd
       -0.09073034 -0.02546309 0.009209558 -0.03940168
000240 fe 57 c7 bd ec 18 5f 3d d0 f7 ab 3d c8 df 65 3d
       -0.0973358 0.054467127 0.08396876 0.056121618
000250 70 87 e9 bd 20 2e 89 3d e4 3e f9 3d f2 c7 82 3d
       -0.11402786 0.06698251 0.121701986 0.06385793
000260 ea 07 8e bd 88 9c 3d 3d 54 a1 e6 bd 28 53 c1 3d
       -0.06935103 0.046291858 -0.1126124 0.09439689
000270 d4 6a d3 bd 94 ff 17 bd 36 c1 c7 bd 6e b1 9c 3d
       -0.1032311 -0.037108973 -0.09753649 0.076510295
000280 00 9b a9 3a 3c f9 2d bd bc 49 87 bd b2 6b ea bd
       0.001293987 -0.042474017 -0.066058606 -0.114463225
000290 78 c4 d4 bd 18 16 9d bd d6 f3 80 3d f0 18 be 3c
       -0.10389036 -0.0767023 0.06296508 0.02320525
0002a0 3a 1d c8 3d a6 0c b4 bd d0 b4 d7 3c 0a 37 c6 3d
       0.097711995 -0.08791475 0.026331335 0.096784666
0002b0 20 66 f2 3d 6a 43 c5 3d c0 15 4b 3b 60 40 d9 bd
       0.11835885 0.09631999 0.0030988306 -0.10607982
0002c0 66 82 87 bd c8 fc 42 3d 96 85 f9 bd 3c 52 3d 3d
       -0.066166684 0.047604352 -0.121836826 0.046221003
0002d0 4e b8 c8 3d fa e4 b9 3d f0 f2 64 bc 00 03 9f 3b
       0.09800778 0.09076877 -0.013973936 0.0048526525
0002e0 40 f5 1b 3d 44 89 35 bd 60 ad 11 3c ea 74 85 3d
       0.038075686 -0.04432036 0.0088914335 0.0651644
0002f0 28 b5 ad bd db 6b 55 3d 11 da db 3d 27 1e cf bd
       -0.084818184 0.052104812 0.10734952 -0.10113173
000300 ee 9b 8a bd 33 41 ed 3d f7 28 83 3c 27 db be bd
       -0.067680225 0.115847014 0.016010744 -0.09319144
000310 5f 90 a4 3d 8e 5c c9 bd 44 7b ba bd e8 24 94 bd
       0.08035349 -0.098321065 -0.09105542 -0.07233602
000320 eb 94 4b 3d f9 3e 90 bb e1 2e 64 bd 42 f2 9b 3d
       0.049702566 -0.004402038 -0.05570877 0.076145664
000330 28 f1 83 3d cb 67 c1 bd 05 4b c2 bd 63 a7 07 bd
       0.06442481 -0.09443625 -0.09486965 -0.033118617
000340 f7 7c 01 bb 79 4c 03 bd 51 62 e2 bd 35 51 3c bd
       -0.0019758323 -0.032055352 -0.110539086 -0.045975883
000350 14 aa 30 3c ed 67 68 3d d2 47 fc 3d 3f b8 26 bd
       0.010782737 0.056739736 0.12318386 -0.040703055
000360 e9 9d 3c bd 2b 1a 58 3d bc fe 34 3d 51 8f ff bc
       -0.046049032 0.05275933 0.044188246 -0.031196268
000370 0d 7a dc 3d 7c 1e 86 3a b1 6c 8e bd f5 67 18 3d
       0.10765467 0.0010232474 -0.06954325 0.037208516
000380 51 c5 22 3b 6c 66 e2 bd 6d 6f 51 3d c9 7e fb 3c
       0.0024836848 -0.11054692 0.051131655 0.030700104
000390 a8 68 0c bd 64 56 32 3d 07 9b f9 bd 6f fd a8 bd
       -0.034279495 0.04353942 -0.12187772 -0.082514636
0003a0 48 de 8b 3c 14 02 42 bc 21 0c cf bd bb 32 21 3d
       0.017073765 -0.011841316 -0.10109735 0.03935502
0003b0 0b 0a 6c bd d1 04 56 bc 0a 0a ff 3d 07 9d 64 3c
       -0.057626765 -0.013062672 0.12453087 0.013953454
0003c0 9c 1d 81 3d 4f 53 5e 3d 4f 3a 47 bd b5 45 bf 3c
       0.06304476 0.054278668 -0.04863959 0.023348669
0003d0 38 99 ba 3d 55 09 a3 3d b1 88 07 3e 85 80 74 3c
       0.091112554 0.07960764 0.13235737 0.01492322
0003e0 7a 31 d2 bd 67 92 81 bd 96 88 19 bd bb 70 94 3d
       -0.10263343 -0.06326752 -0.037483774 0.07248064
0003f0 ff 23 41 3b 9c 54 c0 3d 1e 5a bc bd c9 b1 98 3b
       0.0029470918 0.09391138 -0.09196876 0.0046598655

rnn.weight_hh_l0 f4 [64, 64]
000000 60 7d 62 3c 4e e9 d0 bd 30 67 66 bc 24 28 3a 3d
       0.013823837 -0.10200749 -0.014062688 0.045448437
000010 90 39 90 3d e8 fa 6b 3d bc f1 8a bd 8c 22 5d bd
       0.07042229 0.05761233 -0.067843884 -0.053988025
000020 08 dc c4 3c 10 65 34 bc 3a 08 fa 3d a0 13 6b bc
       0.0240307 -0.011010423 0.122086 -0.014347941
000030 14 7b 8f bd 80 a3 a3 bb d0 d3 d6 3d ee 24 dc 3d
       -0.07005897 -0.004993856 0.10489619 0.10749231
000040 00 11 68 ba 5c 12 31 3d 42 25 d0 bd fa 3f d4 bd
       -0.0008852631 0.0432304 -0.10163356 -0.10363765
000050 20 0b d6 bc ec 27 cf bd 5c 78 24 3d 9c 3e b4 3d
       -0.026128352 -0.10115036 0.040153846 0.08801004
000060 f4 1a 9f bd 40 71 ee bd d0 64 fd bc b8 7b 69 bd
       -0.07768813 -0.116426945 -0.03093186 -0.057002753
000070 00 a1 c6 3d 24 41 5c bd b0 1d 83 bc d8 6a 27 3d
       0.09698677 -0.05377306 -0.016005367 0.04087338
000080 20 5b 09 bc 9c 39 99 3d be 34 d9 bd 00 c5 da 3a
       -0.008383542 0.07481691 -0.10605763 0.0016690791
000090 0e f3 e2 bd a0 3b c4 bb ca 02 d2 bd ae a5 ef bd
       -0.11081515 -0.005988553 -0.10254438 -0.11701523
0000a0 06 34 da 3d 7c 2a 63 3d 80 b7 ca bc a0 6a 1c bc
       0.10654454 0.055460438 -0.024745703 -0.009546906
0000b0 7e 8a aa bd 9a 37 e7 3d a0 e1 21 bd 76 f5 f8 3d
       -0.083271965 0.11289902 -0.039521813 0.12156193
0000c0 94 74 a7 3d 6a 1d a8 3d 5a be e1 3d 70 2c 73 bd
       0.081765324 0.08208735 0.11022635 -0.05936855
0000d0 cc f1 72 3d 94 2c f4 bd 46 cb c0 3d 74 94 f6 bd
       0.059312627 -0.11922565 0.09413771 -0.12040034
0000e0 da c5 d8 bd 2a 42 f0 3d 00 c2 e3 bd 14 eb ae bd
       -0.10584612 0.1173137 -0.11120987 -0.08540931
0000f0 50 82 c2 bd ca 92 9a 3d b8 8d c8 3d 70 34 71 bd
       -0.094975114 0.07547529 0.09792656 -0.0588879
000100 54 97 00 3d 84 22 2b bd fe a8 d1 3d 22 e7 d7 bd
       0.031394318 -0.041780964 0.10237311 -0.10542132
000110 1c d4 63 bd 18 6a c2 3d 18 16 f0 3d dc 8d f4 bd
       -0.055622205 0.09492892 0.11722964 -0.1194112
000120 10 8c e4 3c ec c2 1f bd 5c 57 91 3d d8 e8 1a 3d
       0.027898818 -0.03900425 0.070967406 0.037819713
000130 8c 13 61 bd 50 7b 5b bc 80 d6 d6 3a 6e 4d cd bd
       -0.054950282 -0.013396099 0.001639083 -0.10024534
000140 a6 a7 f3 3d be e8 87 bd f0 ed 97 3d e0 0b 84 3d
       0.11897211 -0.06636189 0.0741843 0.064475775
000150 90 13 6c 3c b0 0f 05 3d 60 64 8b bd d0 1d 59 3d
       0.014408961 0.032485664 -0.068062544 0.053006947
000160 34 8a 4c bd 48 3f 47 bd 22 7c c6 3d 20 77 e2 3c
       -0.04993649 -0.048644334 0.09691645 0.027644694
000170 c6 88 a7 bd 38 6a b2 bc ba b7 d0 3d 20 6b 69 bd
       -0.08180384 -0.021779165 0.10191293 -0.056986928
000180 80 7b 6d 3c 70 41 be bc bc 9b 93 bd e6 ec 88 3d
       0.014494777 -0.023224562 -0.07207438 0.0668581
000190 f4 52 9e 3d 50 2a 32 bd 58 03 ed 3c 5a 5a a9 3d
       0.07730666 -0.043497384 0.028932258 0.08269186
0001a0 98 8e d8 3c fa 8a a6 3d 50 6f e0 bd 46 cb cb 3d
       0.026435181 0.081319764 -0.10958731 0.09950881
0001b0 60 d6 8b 3c 00 b1 75 bc 58 78 81 3c 8a f7 b3 3d
       0.017069995 -0.014995813 0.015804455 0.08787449
0001c0 d2 05 90 3d f0 30 67 3d 90 8c a2 3d 10 8f 00 3c
       0.0703236 0.056443155 0.079369664 0.007846609
0001d0 bc 94 71 3d 26 ec a1 3d 44 db ef bd cc b2 60 bd
       0.058979735 0.0790637 -0.117117435 -0.054858014
0001e0 30 1a f0 bc 9c 50 18 bd 1c 42 0f 3d 62 64 f6 3d
       -0.029309362 -0.03718625 0.034975156 0.12030865
0001f0 30 8a 1d bd be a6 df bd a2 2f 89 bd 90 a5 b3 bc
       -0.038461864 -0.109204754 -0.06698538 -0.021929532
000200 cc 4e 20 bd 90 9d bb bd 94 ab 00 bd 8c 5f 5a 3d
       -0.039137647 -0.09160912 -0.03141363 0.053313777
000210 80 52 05 bb 08 36 90 bc 7a 5f 9b bd fc d6 92 bd
       -0.0020343363 -0.01760389 -0.0758657 -0.07169911
000220 04 e8 73 bd a0 70 6a bd a4 5e a1 3d 1e 7a b4 bd
       -0.05954744 -0.057236314 0.078793794 -0.088123545
000230 e0 da 12 bc f4 88 82 bd ae 76 fc 3d a2 c6 d5 bd
       -0.008963317 -0.06373778 0.12327324 -0.10438277
000240 00 b1 a5 bc b8 26 a4 3c 08 35 98 bd 06 fa 8a 3d
       -0.020226002 0.020037994 -0.0743199 0.067859694
000250 b4 43 9a 3d 7a d0 c8 bd ac 58 9a 3d 28 00 7b 3d
       0.075324446 -0.09805389 0.07536444 0.061279446
000260 54 95 39 bd 12 5c d5 bd 3a 1e fb bd 38 ab d7 3c
       -0.045308426 -0.10417952 -0.12261625 0.02632676
000270 b0 65 3f 3c d0 cc 77 3d 60 da f0 bb 74 f6 1b bd
       0.011681959 0.06049806 -0.007350251 -0.038076833
000280 9e 91 8d 3d 40 e9 fe 3d a8 7a d6 3d 54 54 9c bd
       0.0691254 0.12446833 0.104726136 -0.07633272
000290 b0 84 ef bc 40 03 4e 3c 14 74 92 bd bc 43 26 bd
       -0.029238075 0.012574017 -0.071510464 -0.04059194
0002a0 f2 0c fe bd 9c 12 3a bd 62 80 fb 3d 00 01 47 bd
       -0.12404813 -0.045427904 0.122803465 -0.048584938
0002b0 f2 5b cd 3d b0 84 5d bd 2c ec bf 3d ea 7d dc 3d
       0.10027303 -0.05408162 0.09371218 0.10766204
0002c0 f2 44 83 3d 68 d7 45 bd 4e a7 d3 bd 98 db 38 bd
       0.06409635 -0.04830113 -0.10334645 -0.045131296
0002d0 80 00 79 bc c6 38 db bd 60 02 22 bc a0 f0 91 3c
       -0.015197873 -0.10704188 -0.009888262 0.017814934
0002e0 ce bf 96 3d c0 c0 28 bb 00 35 ed 3b f8 e0 b9 bd
       0.073608026 -0.0025749654 0.007238984 -0.090761125
0002f0 d8 53 b0 3c c0 3b 94 3b 30 b4 fe bc 5c 71 be 3d
       0.021524355 0.0045237243 -0.03109178 0.09298965
000300 08 9b a9 bd 26 99 f0 3d 20 de e4 bd 90 7b 18 bd
       -0.08281523 0.11747961 -0.111751795 -0.037227213
000310 80 6c d2 bb f0 fa fa 3d 40 e6 35 bc 62 de be bd
       -0.0064216256 0.12254894 -0.011102259 -0.0931976
000320 14 8b b5 3d f6 38 95 bd 68 e6 56 bd 5e 97 a3 bd
       0.08864418 -0.07286255 -0.052465826 -0.079878554
000330 f8 d9 c4 3c 30 b9 33 3d 30 01 9a bc a8 e9 ff 3c
       0.024029717 0.04387778 -0.018799394 0.031239346
000340 58 57 24 3d 60 45 a6 3b 40 0f c2 bd ee 8d ef 3d
       0.04012236 0.005074188 -0.09475565 0.11696993
000350 e2 75 80 bd b2 0c 8d bd 2c e2 65 3d b0 71 c4 bd
       -0.06272484 -0.06887187 0.056123897 -0.09591997
000360 80 43 e6 bd ae 01 a9 3d 86 9d cd 3d b0 4a aa 3d
       -0.11243343 0.082522735 0.10039811 0.08315027
000370 58 a8 ab 3d 60 48 0a bd 9a 71 87 bd b0 bf 52 3d
       0.083817184 -0.03376043 -0.06613465 0.05145234
000380 80 19 d5 3a 66 10 ff 3d 04 6a 9b 3d 72 55 c6 3d
       0.001625821 0.124543 0.0758858 0.09684266
000390 a0 dc ec bc 4a 1f c2 bd 28 de c8 3c a0 1b db 3c
       -0.028913796 -0.09478624 0.024519995 0.026746571
0003a0 08 cc 48 3d 10 29 d5 bc ba 63 b5 bd 60 1c e3 bc
       0.049022704 -0.026020557 -0.08856912 -0.027723491
0003b0 40 2c a1 bb 90 46 53 3d 80 5c 5d 3b a0 9d 8c 3c
       -0.004918605 0.051580966 0.0033777058 0.017165005
0003c0 40 43 98 3d 30 bb f6 3d 00 0a 8e ba b0 2f 6c bd
       0.07434702 0.12047422 -0.001083672 -0.057662666
0003d0 22 95 a2 3d 70 30 bf 3d 5c b1 2c 3d 5a 81 8a 3d
       0.07938601 0.093354106 0.04216133 0.06762953
0003e0 70 e3 96 bd 6a 80 c5 3d 70 24 d4 bc b6 1c a3 3d
       -0.07367599 0.09643634 -0.025896281 0.079644606
0003f0 68 c7 eb bc c2 5b a9 3d 08 fe 3b bd 90 d4 09 3d
       -0.028781608 0.082694545 -0.04589656 0.03364998

rnn.bias_ih_l0 f4 [64]
000000 52 53 cc 3d 28 b2 36 3d 94 44 77 bd 40 f2 0a bb
       0.099768296 0.044603497 -0.060368136 -0.002120152
000010 fb cf ff 3d c2 35 11 bd e0 ed 70 bc b2 2b c8 bd
       0.12490841 -0.035451658 -0.014705151 -0.09773959
000020 78 69 da bd e4 c1 79 3d b6 8e 98 bd ae 35 90 bd
       -0.10664648 0.060975924 -0.07449095 -0.070414886
000030 ed a8 10 bd 6c 49 0b 3d 5b 54 64 3c e9 d1 0c bd
       -0.03531735 0.034005567 0.013936128 -0.034379873
000040 00 1c 08 3a 00 76 24 bd 70 29 4b 3d 36 b6 cb 3d
       0.00051921606 -0.040151596 0.049600065 0.09946863
000050 06 14 89 bd d3 08 a5 3d f8 61 1c bd da 15 ac 3d
       -0.06693272 0.08058324 -0.038179368 0.08402605
000060 c0 6d 95 3b a8 9d af 3c 8e d7 ce bd 5d 91 46 bd
       0.0045602024 0.021437481 -0.100997075 -0.048478473
000070 f2 00 9c bd 9a 39 b9 bc 6a 46 4d 3c 0c a8 75 3d
       -0.07617368 -0.022610474 0.012528995 0.059974715
000080 b6 96 22 3c 90 8b 08 bc ae 77 30 bd f4 34 5c 3d
       0.009923628 -0.008334056 -0.043082885 0.053761438
000090 60 fe bd 3b 40 05 df bc aa 39 a2 bc aa 6e 95 3d
       0.005798146 -0.027224183 -0.019802887 0.07296498
0000a0 09 af d0 bd 40 c8 9b 3c 62 bd 05 bd 54 a6 e7 bd
       -0.10189635 0.019016385 -0.032651313 -0.113110214
0000b0 30 18 05 bd e8 01 8f 3d 13 67 f8 3d 60 1f 01 3c
       -0.03249377 0.069827855 0.12129035 0.007881016
0000c0 10 d4 31 bd 40 82 82 bb 52 95 c4 3d 28 99 c1 bd
       -0.04341513 -0.003982812 0.09598793 -0.0945304
0000d0 8e f5 a2 bd cb 86 74 3c f8 53 1d 3c 7c a1 f2 3c
       -0.07956992 0.014924715 0.009602539 0.029618017
0000e0 49 e3 02 3e c0 ec 56 3b bc e5 72 bd 33 3e 38 bc
       0.12782015 0.0032794923 -0.059301123 -0.011245298
0000f0 98 6c 3c 3d ff 03 f9 bb a7 e4 98 bd 00 0c a4 3c
       0.046002 -0.0075993533 -0.07465487 0.020025253

rnn.bias_hh_l0 f4 [64]
000000 1c 9c 81 bd 08 ae 85 3d a8 07 82 3c fc 2e 38 bd
       -0.063286036 0.065273345 0.015872791 -0.044966683
000010 c1 8e c3 3d c7 b0 34 bc 6e f3 19 bd aa cc fc bd
       0.095487125 -0.011028475 -0.03758567 -0.12343724
000020 4c a4 7c 3d e8 a2 e1 3c 40 f8 57 bb 73 06 97 3d
       0.061680123 0.0275435 -0.0032954365 0.07374277
000030 cc 33 a1 3d 30 a6 0d 3d 76 23 c1 3d 48 7e b2 3d
       0.078712076 0.034582317 0.09430592 0.087154925
000040 52 06 d5 bd a8 90 24 3d b6 dc f9 3d d0 4d 5a bd
       -0.10401596 0.040177017 0.122003004 -0.053296864
000050 94 be dd 3d 2d f7 8e 3d 56 c6 e9 3d e4 e6 e1 3d
       0.108273655 0.06980739 0.11414783 0.11030367
000060 20 ef 98 3b 10 da 96 3d a3 cc bf 3c 81 cb a5 3d
       0.004667178 0.07365811 0.023413008 0.08095456
000070 e4 13 15 3d 09 6f 8a 3d df d5 ab 3d 94 13 06 3d
       0.036395922 0.067594595 0.08390402 0.032733515
000080 98 ae 33 3d 78 5f 53 bd 1a ab 77 bd f0 b0 b1 3d
       0.043867677 -0.051604718 -0.06046591 0.08676326
000090 72 8a a2 3d 30 79 b3 bc 17 0c 7d 3d 52 a5 be bd
       0.079365626 -0.021908373 0.061779108 -0.09308876
0000a0 39 68 9c bd 88 ea 10 3d 0b 1b ed 3d 16 a0 e7 bd
       -0.076370664 0.035379916 0.11577424 -0.11309831
0000b0 e4 52 a8 bd 30 89 b5 3d 0f 12 30 bd 30 2d ed 3c
       -0.08218935 0.08864057 -0.042985972 0.028952211
0000c0 c0 b8 20 3c 52 a3 8f 3d e0 c8 7c 3c c0 2c 35 bb
       0.009809673 0.07013573 0.015428752 -0.0027645081
0000d0 20 a8 34 bd 58 16 04 3c 72 43 1e bd a5 ef ef bd
       -0.04410565 0.008061968 -0.03863854 -0.117156304
0000e0 15 c8 56 bd 88 31 e8 bc 14 12 44 3d 52 69 88 bd
       -0.052436907 -0.02834393 0.047868803 -0.06660713
0000f0 48 9c a2 bd ce d8 34 3d 57 21 38 3c 4e b2 d2 3d
       -0.079399645 0.044152074 0.011238418 0.10287915

fc.weight f4 [1, 64]
000000 97 76 11 c0 86 c6 0c 40 6e 6a 07 40 69 4c 11 c0
       -2.2728631 2.199617 2.115871 -2.2702887
000010 b7 1b 11 40 77 b1 10 40 18 63 0c 40 77 32 07 40
       2.2673166 2.2608316 2.1935482 2.1124551
000020 88 31 05 40 83 53 0d c0 10 f9 11 40 7e 74 14 40
       2.0811481 -2.2082222 2.2808266 2.31961
000030 cb 05 0d c0 b9 82 11 c0 35 1a 12 40 ef 3f 0c 40
       -2.2034786 -2.2736037 2.2828496 2.1914022
000040 bd 2a 05 40 0e 6a 08 40 76 63 11 c0 00 71 12 40
       2.0807335 2.131473 -2.2716956 2.288147
000050 ea 3f 0c c0 eb 4f 12 c0 81 18 0f 40 98 81 04 c0
       -2.191401 -2.2861278 2.2358706 -2.0704098
000060 31 ed 0f c0 cb 15 0c c0 2c 96 0f c0 89 36 10 40
       -2.248852 -2.1888301 -2.2435408 2.2533286
000070 8d 70 0e 40 1c fb 0a c0 f9 62 0c 40 40 6e 05 40
       2.2256196 -2.1715765 2.1935408 2.0848541
000080 ae 77 0d c0 f7 44 10 40 16 df 0f c0 b2 ae 0e c0
       -2.2104297 2.2542093 -2.247991 -2.2294126
000090 4a b8 11 40 25 83 10 40 6b 0c 12 40 7a 6f 11 40
       2.276873 2.2580044 2.282008 2.272429
0000a0 cc b5 0c c0 d0 b0 0a 40 71 94 12 40 8a 42 09 c0
       -2.198596 2.1670418 2.2903101 -2.1446862
0000b0 b5 7c 0a 40 34 e8 0a c0 57 86 0b 40 f0 3c 08 c0
       2.1638615 -2.1704226 2.1800745 -2.1287193
0000c0 41 6b 04 40 f7 6f 07 c0 ff 70 09 c0 ee 85 0b 40
       2.0690463 -2.1162088 -2.1475217 2.1800494
0000d0 3e 7c 04 c0 67 f9 0d c0 86 30 10 c0 c9 bf 10 c0
       -2.0700831 -2.2183473 -2.2529616 -2.2617056
0000e0 5c 30 12 40 32 33 05 c0 64 09 08 c0 5d fe 12 c0
       2.2842016 -2.0812497 -2.1255732 -2.296775
0000f0 1b a8 0c 40 ca 02 11 40 2c cc 0b 40 47 e8 07 40
       2.1977603 2.2657952 2.1843367 2.123552
